src/model.tflite (tflite, 22516 bytes, 68 tensors)

model_7/dense_183/BiasAdd/ReadVariableOp f4 [46]
000000 d5 b2 e0 ba 00 00 00 00 00 00 00 00 00 00 00 00
       -0.001714314 0.0 0.0 0.0
000010 6c d2 fe bb 5f 6a d3 bb 00 00 00 00 07 19 75 c3
       -0.007776549 -0.0064518894 0.0 -245.09776
000020 8b c9 7a c3 a6 0b 26 bb 00 00 00 00 00 00 00 00
       -250.78728 -0.0025336533 0.0 0.0
000030 00 00 00 00 00 00 00 00 00 00 00 00 00 00 00 00
       0.0 0.0 0.0 0.0
000040 00 00 00 00 2a 34 51 c4 00 00 00 00 3e 30 d8 c3
       0.0 -836.81506 0.0 -432.3769
000050 00 00 00 00 00 00 00 00 a2 56 a1 c4 bf 77 de ba
       0.0 0.0 -1290.7073 -0.0016972943
000060 49 e9 2f c4 56 02 cb bb e5 cd af c4 95 07 9e bb
       -703.6451 -0.006195347 -1406.4342 -0.004822681
000070 00 00 00 00 de 34 05 c3 74 6f a3 c4 47 39 23 bb
       0.0 -133.20651 -1307.4829 -0.0024905966
000080 49 2f 73 c4 00 00 00 00 00 00 00 00 f3 8f b0 c4
       -972.73883 0.0 0.0 -1412.4984
000090 00 00 00 00 00 00 00 00 fb 61 df c3 00 00 00 00
       0.0 0.0 -446.76547 0.0
0000a0 65 1f a0 bb 0b 9c 8f c4 80 a4 50 ba 00 00 00 00
       -0.004886555 -1148.8763 -0.0007959083 0.0
0000b0 d5 2f 5f bb f7 05 8a c3
       -0.003405561 -276.0466

model_7/dense_182/BiasAdd/ReadVariableOp f4 [44]
000000 67 8d 06 c9 00 00 00 00 00 00 00 00 ca 9f 2c be
       -551126.44 0.0 0.0 -0.1685783
000010 00 00 00 00 be af 10 be ef df 8b c9 67 6e 48 bd
       0.0 -0.1412954 -1.1458539e+06 -0.048933413
000020 00 00 00 00 0b d2 1b be 25 e0 e2 bc 00 00 00 00
       0.0 -0.15216844 -0.027694771 0.0
000030 00 00 00 00 2d 0f 08 be 00 00 00 00 00 00 00 00
       0.0 -0.13287039 0.0 0.0
000040 00 00 00 00 00 00 00 00 00 00 00 00 91 76 d8 c9
       0.0 0.0 0.0 -1.7732661e+06
000050 00 00 00 00 00 00 00 00 00 00 00 00 71 e7 98 bd
       0.0 0.0 0.0 -0.07466019
000060 00 00 00 00 d3 93 77 ca 00 00 00 00 55 f2 c2 c9
       0.0 -4.0563088e+06 0.0 -1.5970026e+06
000070 30 0a 1a be 00 00 00 00 00 00 00 00 53 f3 55 bd
       -0.15042949 0.0 0.0 -0.052234005
000080 e1 56 3a ca cd c0 94 bd e0 62 2b be 00 00 00 00
       -3.0529842e+06 -0.07263336 -0.16736937 0.0
000090 00 00 00 00 29 f7 9c ca 00 00 00 00 00 00 00 00
       0.0 -5.1434445e+06 0.0 0.0
0000a0 00 00 00 00 00 00 00 00 00 00 00 00 17 02 2b be
       0.0 0.0 0.0 -0.16700016

model_7/dense_181/BiasAdd/ReadVariableOp f4 [42]
000000 00 00 00 00 6f b3 4e c9 00 00 00 00 00 00 00 00
       0.0 -846646.94 0.0 0.0
000010 92 75 96 bb 00 00 00 00 00 00 00 00 00 00 00 00
       -0.004591652 0.0 0.0 0.0
000020 f5 5e 50 c9 9d ab 6c bd 8a 2f 69 bd 00 00 00 00
       -853487.3 -0.05778085 -0.056930102 0.0
000030 00 00 00 00 00 00 00 00 00 00 00 00 00 00 00 00
       0.0 0.0 0.0 0.0
000040 00 00 00 00 00 00 00 00 4a 96 26 bd c7 87 dd bc
       0.0 0.0 -0.04067067 -0.027042283
000050 00 00 00 00 00 00 00 00 00 00 00 00 00 00 00 00
       0.0 0.0 0.0 0.0
000060 bd b9 34 bd 05 1a 81 c8 00 00 00 00 00 00 00 00
       -0.044122446 -264400.16 0.0 0.0
000070 99 eb 9c bd ed 23 20 c8 00 00 00 00 67 64 58 c9
       -0.07662124 -163983.7 0.0 -886342.44
000080 4b 63 3a bd 00 00 00 00 00 00 00 00 7a 96 11 c9
       -0.04550485 0.0 0.0 -596327.6
000090 00 00 00 00 a4 f4 64 c9 00 00 00 00 2a eb 1e c9
       0.0 -937802.25 0.0 -650930.6
0000a0 00 00 00 00 00 00 00 00
       0.0 0.0

model_7/dense_180/BiasAdd/ReadVariableOp f4 [40]
000000 00 00 00 00 ad 51 68 c5 00 00 00 00 f8 7b 4c bc
       0.0 -3717.1047 0.0 -0.012480728
000010 b8 f0 d2 c5 a1 56 3b c5 00 00 00 00 07 4f 9b c4
       -6750.09 -2997.4143 0.0 -1242.4696
000020 00 00 00 00 9a b0 a5 ba 66 e2 cc c5 00 00 00 00
       0.0 -0.0012641132 -6556.3 0.0
000030 00 00 00 00 b1 32 68 c4 be 04 bd c5 00 00 00 00
       0.0 -928.79205 -6048.593 0.0
000040 5d c6 46 bc 00 00 00 00 00 00 00 00 00 00 00 00
       -0.012132254 0.0 0.0 0.0
000050 00 00 00 00 00 00 00 00 00 00 00 00 c1 25 0c c5
       0.0 0.0 0.0 -2242.3596
000060 ac 39 38 bc 00 00 00 00 f1 0f b6 c5 dd 15 3c bc
       -0.011244219 0.0 -5825.9927 -0.011479822
000070 05 87 10 c5 00 00 00 00 6c 16 42 bb ed f3 c4 bb
       -2312.4387 0.0 -0.0029615415 -0.0060105235
000080 74 09 22 c5 00 00 00 00 c3 cb ca c5 00 00 00 00
       -2592.5908 0.0 -6489.47 0.0
000090 00 00 00 00 5d bd ce bb 48 d1 cb c5 00 00 00 00
       0.0 -0.006309195 -6522.16 0.0

model_7/dense_179/BiasAdd/ReadVariableOp f4 [38]
000000 00 00 00 00 69 39 2b c9 1d 92 10 ba 88 18 5d c8
       0.0 -701334.56 -0.00055149366 -226402.12
000010 00 00 00 00 a2 20 72 bd 00 00 00 00 00 00 00 00
       0.0 -0.059113152 0.0 0.0
000020 51 8f 9c ba 00 00 00 00 00 00 00 00 00 00 00 00
       -0.0011944567 0.0 0.0 0.0
000030 00 00 00 00 00 00 00 00 2a 3a ec c7 00 00 00 00
       0.0 0.0 -120948.33 0.0
000040 bd d1 2d bd 00 00 00 00 00 00 00 00 3a 4e d3 ba
       -0.04243635 0.0 0.0 -0.0016121336
000050 69 6e 7f bc b0 b3 29 c9 00 00 00 00 87 4c ed c8
       -0.015590289 -695099.0 0.0 -485988.22
000060 00 00 00 00 68 f3 88 bd 00 00 00 00 00 00 00 00
       0.0 -0.06687051 0.0 0.0
000070 5a 44 9c bd 42 3f 6b bd 00 00 00 00 db c9 34 bd
       -0.076302245 -0.057433374 0.0 -0.044137817
000080 00 00 00 00 00 00 00 00 d0 df 74 bc 00 00 00 00
       0.0 0.0 -0.014945939 0.0
000090 00 00 00 00 00 00 00 00
       0.0 0.0

model_7/dense_178/BiasAdd/ReadVariableOp f4 [36]
000000 b3 46 c8 c8 00 00 00 00 a3 b3 e1 c8 00 00 00 00
       -410165.6 0.0 -462237.1 0.0
000010 00 00 00 00 03 d4 4d bd 00 00 00 00 00 00 00 00
       0.0 -0.05025102 0.0 0.0
000020 00 00 00 00 4b a9 11 bd 00 00 00 00 00 00 00 00
       0.0 -0.03556184 0.0 0.0
000030 2e b1 77 c8 00 00 00 00 bb b6 2b c5 00 00 00 00
       -253636.72 0.0 -2747.4207 0.0
000040 00 00 00 00 00 00 00 00 27 b0 8b c8 00 00 00 00
       0.0 0.0 -286081.22 0.0
000050 59 84 25 bc 00 00 00 00 bc cb 59 bd 3e 11 e4 ba
       -0.010102355 0.0 -0.053172812 -0.0017400158
000060 9a 46 8e bc 00 00 00 00 1f b3 bf c8 00 00 00 00
       -0.01736765 0.0 -392600.97 0.0
000070 00 00 00 00 00 00 00 00 69 c8 61 bd 00 00 00 00
       0.0 0.0 -0.055122767 0.0
000080 00 00 00 00 00 00 00 00 7e 7a 8e bd 7a d6 77 bd
       0.0 0.0 -0.06956957 -0.060507275

model_7/dense_177/BiasAdd/ReadVariableOp f4 [34]
000000 00 00 00 00 c4 f3 0d c7 00 00 00 00 00 00 00 00
       0.0 -36339.766 0.0 0.0
000010 e0 06 37 bb 0c 03 3e c7 fd fe 18 bc 00 00 00 00
       -0.0027927682 -48643.047 -0.009338138 0.0
000020 97 86 35 c6 a8 35 ad c7 00 00 00 00 00 00 00 00
       -11617.647 -88683.31 0.0 0.0
000030 22 43 24 bc 88 57 0d c7 37 da 94 c7 e5 0c a9 c7
       -0.010025771 -36183.53 -76212.43 -86553.79
000040 6a 43 01 bc 00 00 00 00 87 0d ea c6 13 bd c7 bb
       -0.007889608 0.0 -29958.764 -0.0060955375
000050 0e f7 3a c6 98 30 e4 c6 f1 72 49 bc 45 59 5f c4
       -11965.764 -29208.297 -0.012295471 -893.39484
000060 19 fe 65 c4 da 2c e9 bc 00 00 00 00 6c 17 ec bc
       -919.9703 -0.02846377 0.0 -0.028819762
000070 00 00 00 00 00 00 00 00 62 d8 c4 bc 13 93 99 c7
       0.0 0.0 -0.02402896 -78630.15
000080 00 00 00 00 99 3b f1 bc
       0.0 -0.029447364

model_7/dense_176/BiasAdd/ReadVariableOp f4 [32]
000000 00 00 00 00 00 00 00 00 f8 f0 34 bb 78 5e 00 bd
       0.0 0.0 -0.002760945 -0.031340092
000010 00 00 00 00 00 00 00 00 00 00 00 00 b2 ef 94 c8
       0.0 0.0 0.0 -305021.56
000020 00 00 00 00 ff eb 62 bd 00 00 00 00 a6 7f 1e bc
       0.0 -0.055400845 0.0 -0.009673988
000030 1e 9f 15 bd 14 2f 70 bc 00 00 00 00 85 06 cf c7
       -0.0365287 -0.014659662 0.0 -105997.04
000040 5e 76 62 bd 00 00 00 00 00 00 00 00 95 3e 06 bd
       -0.055288665 0.0 0.0 -0.032774527
000050 06 e6 ea c8 1a 9b 97 bc 2e e8 c7 c7 00 00 00 00
       -481072.2 -0.018506575 -102352.36 0.0
000060 00 00 00 00 5a e5 8b c8 a6 4b 92 c7 00 00 00 00
       0.0 -286506.8 -74903.3 0.0
000070 ec ac 2a c8 05 6a c0 c8 7e d1 87 c8 00 00 00 00
       -174771.69 -394064.16 -278155.94 0.0

model_7/dense_175/BiasAdd/ReadVariableOp f4 [30]
000000 5d 48 8c be dd e2 63 cb 00 00 00 00 00 00 00 00
       -0.2739896 -1.4934749e+07 0.0 0.0
000010 48 38 d2 bd e7 cd 67 ca 00 00 00 00 42 54 8e be
       -0.10264641 -3.7978818e+06 0.0 -0.2779866
000020 53 f2 09 bb 00 00 00 00 00 00 00 00 33 19 03 be
       -0.0021048978 0.0 0.0 -0.12802581
000030 00 00 00 00 18 7e cd ca 73 01 39 be 94 23 90 be
       0.0 -6.73358e+06 -0.18066959 -0.28152144
000040 7a 1f bc bd 73 14 52 be 00 00 00 00 42 4c 37 ca
       -0.09185691 -0.20515613 0.0 -3.0031525e+06
000050 07 cc 54 be 00 00 00 00 00 00 00 00 58 ec 08 cb
       -0.20780955 0.0 0.0 -8.9734e+06
000060 00 00 00 00 11 31 0a bb 68 30 96 ca cc f3 52 be
       0.0 -0.0021086375 -4.921396e+06 -0.20600814
000070 00 00 00 00 00 00 00 00
       0.0 0.0

model_7/dense_174/BiasAdd/ReadVariableOp f4 [28]
000000 00 00 00 00 79 31 78 bc 00 00 00 00 00 00 00 00
       0.0 -0.015148514 0.0 0.0
000010 dd 1f 7d bd 00 00 00 00 e6 7d d1 c7 f8 96 c0 bc
       -0.061797965 0.0 -107259.8 -0.023509488
000020 a1 7b 1c bd 9a 9e 0d bd 00 00 00 00 00 00 00 00
       -0.03820384 -0.034575082 0.0 0.0
000030 00 00 00 00 6e e9 96 c8 00 00 00 00 7d 8a 0a bb
       0.0 -309067.44 0.0 -0.0021139674
000040 ab de 35 bd 31 d3 7a c8 00 00 00 00 00 00 00 00
       -0.044401806 -256844.77 0.0 0.0
000050 9a 38 de bc af 04 31 bd 00 00 00 00 00 00 00 00
       -0.0271266 -0.043217357 0.0 0.0
000060 83 aa 66 c7 98 89 05 c8 00 00 00 00 44 1f f0 bc
       -59050.51 -136742.38 0.0 -0.029311784

model_7/dense_173/BiasAdd/ReadVariableOp f4 [26]
000000 d6 93 63 c9 ea 09 88 bd e6 3c 73 bd 00 00 00 00
       -932157.4 -0.06642516 -0.05938425 0.0
000010 47 32 44 bd 9d 6b bc bc 00 00 00 00 00 00 00 00
       -0.04789951 -0.023000533 0.0 0.0
000020 69 e1 1a bd 7d e6 40 bd 3e 1c 81 bd 01 1c 21 c8
       -0.037812624 -0.04709481 -0.06304215 -164976.02
000030 88 71 77 c9 00 00 00 00 2e 2c a1 c9 00 00 00 00
       -1.0135285e+06 0.0 -1.3203258e+06 0.0
000040 7a 99 8f c8 c2 0f ef bb 00 00 00 00 00 00 00 00
       -294091.8 -0.0072955796 0.0 0.0
000050 00 00 00 00 00 00 00 00 7f 05 1f bd 00 00 00 00
       0.0 0.0 -0.0388236 0.0
000060 ec 82 c7 c7 00 00 00 00
       -102149.84 0.0

model_7/dense_172/BiasAdd/ReadVariableOp f4 [24]
000000 49 d1 99 bd 39 2d 36 ca e9 07 a2 bc a1 d3 84 bd
       -0.07510621 -2.9847822e+06 -0.019779162 -0.064856775
000010 00 00 00 00 9c 23 ab bd 00 00 00 00 9e fe 9b ca
       0.0 -0.08356401 0.0 -5.111631e+06
000020 81 39 82 c9 00 00 00 00 d0 94 97 c8 4a fd 96 ca
       -1.0668001e+06 0.0 -310438.5 -4.947621e+06
000030 19 88 43 ca 00 00 00 00 41 03 aa bd bf f8 d7 bc
       -3.2035902e+06 0.0 -0.08301402 -0.026363729
000040 11 3e e2 bd 00 00 00 00 69 83 04 be 87 22 18 bd
       -0.110469945 0.0 -0.12940754 -0.037142303
000050 00 00 00 00 34 53 e8 bd 00 00 00 00 00 00 00 00
       0.0 -0.11343995 0.0 0.0

model_7/dense_171/BiasAdd/ReadVariableOp f4 [22]
000000 79 54 a7 bd ac 8f de c7 00 00 00 00 b8 3f 87 c8
       -0.08170409 -113951.34 0.0 -276989.75
000010 94 4f 20 bd 00 00 00 00 00 00 00 00 00 00 00 00
       -0.03913839 0.0 0.0 0.0
000020 3e c6 8f c8 e6 fa f9 bc 00 00 00 00 00 00 00 00
       -294449.94 -0.030515146 0.0 0.0
000030 f9 82 7c c8 97 70 e7 bb 80 ee 00 bc 00 00 00 00
       -258571.89 -0.0070629823 -0.007869363 0.0
000040 00 00 00 00 73 9b 61 bd 00 00 00 00 d2 8f e6 c8
       0.0 -0.05507989 0.0 -472190.56
000050 0d 49 9e c8 00 00 00 00
       -324168.4 0.0

model_7/dense_170/BiasAdd/ReadVariableOp f4 [20]
000000 9c c1 0a c4 00 00 00 00 90 7a e2 c5 00 00 00 00
       -555.02515 0.0 -7247.3203 0.0
000010 93 f4 a3 bc b5 5e 9b bc 85 17 b7 ba 51 eb 52 c5
       -0.020014083 -0.018966058 -0.0013968801 -3374.7073
000020 00 00 00 00 c6 5c 52 bc 00 00 00 00 cd 3f 1c bb
       0.0 -0.012839502 0.0 -0.002384174
000030 00 00 00 00 7e 79 48 c5 00 00 00 00 51 7b 29 c5
       0.0 -3207.5933 0.0 -2711.7073
000040 d6 2e c2 c5 00 00 00 00 00 00 00 00 00 00 00 00
       -6213.8545 0.0 0.0 0.0

model_7/dense_169/BiasAdd/ReadVariableOp f4 [18]
000000 1f c7 4f c3 00 00 00 00 ac a3 c8 c4 d8 ea e6 bb
       -207.77782 0.0 -1605.1147 -0.0070470385
000010 00 00 00 00 00 00 00 00 b5 c8 43 c4 3e 80 51 ba
       0.0 0.0 -783.13605 -0.0007991827
000020 00 00 00 00 17 41 d6 c4 da 6a 42 bc 00 00 00 00
       0.0 -1714.034 -0.011866296 0.0
000030 00 00 00 00 22 78 27 c4 00 00 00 00 00 00 00 00
       0.0 -669.8771 0.0 0.0
000040 00 00 00 00 a6 bc 73 c3
       0.0 -243.73691

model_7/dense_168/BiasAdd/ReadVariableOp f4 [16]
000000 00 00 00 00 00 00 00 00 00 00 00 00 10 39 4d c9
       0.0 0.0 0.0 -840593.0
000010 00 00 00 00 46 41 06 be 00 00 00 00 00 00 00 00
       0.0 -0.13110837 0.0 0.0
000020 57 a4 df c9 00 00 00 00 00 00 00 00 34 ea 60 c7
       -1.8320749e+06 0.0 0.0 -57578.203
000030 50 ff 54 bd 00 00 00 00 b6 05 1b be 00 00 00 00
       -0.052001297 0.0 -0.15138897 0.0

model_7/dense_167/BiasAdd/ReadVariableOp f4 [14]
000000 00 00 00 00 46 fb 0c bb 01 83 e3 c2 00 00 00 00
       0.0 -0.0021512075 -113.75587 0.0
000010 00 00 00 00 a3 b5 6f ba 93 9e a4 c2 ba c9 34 c2
       0.0 -0.00091441924 -82.309715 -45.197
000020 00 00 00 00 e0 cb 15 c2 00 00 00 00 00 00 00 00
       0.0 -37.449097 0.0 0.0
000030 00 00 00 00 28 73 75 bb
       0.0 -0.0037452672

model_7/dense_166/BiasAdd/ReadVariableOp f4 [12]
000000 00 00 00 00 45 93 67 c5 1e b6 c9 c7 12 41 c3 bc
       0.0 -3705.2043 -103276.234 -0.023834739
000010 65 83 19 bd 00 00 00 00 00 00 00 00 00 00 00 00
       -0.037478823 0.0 0.0 0.0
000020 98 eb 30 bc 84 7e 44 bc a8 fc 08 bd fd 9d 2a c7
       -0.010798357 -0.011993054 -0.033444077 -43677.99

model_7/dense_165/BiasAdd/ReadVariableOp f4 [10]
000000 d8 8b 82 bd 74 b7 84 cb 00 00 00 00 ab ce 6e bc
       -0.06374329 -1.7395432e+07 0.0 -0.014575641
000010 e3 b1 67 bd 00 00 00 00 00 00 00 00 4a e2 8f be
       -0.05656613 0.0 0.0 -0.28102332
000020 94 c4 6b be 00 00 00 00
       -0.23024207 0.0

model_7/dense_164/BiasAdd/ReadVariableOp f4 [8]
000000 c6 a4 85 c9 00 00 00 00 00 00 00 00 2c 0d 7a c8
       -1.0948088e+06 0.0 0.0 -256052.69
000010 00 00 00 00 00 00 00 00 fe 39 07 be 00 00 00 00
       0.0 0.0 -0.13205716 0.0

model_7/dense_163/BiasAdd/ReadVariableOp f4 [6]
000000 5f 05 b8 bd da 22 18 be 00 00 00 00 00 00 00 00
       -0.089853995 -0.14857045 0.0 0.0
000010 fc 91 dc bd c9 66 5f bd
       -0.10770032 -0.054541383

model_7/dense_161/BiasAdd/ReadVariableOp f4 [2]
000000 51 1b 09 bc 00 00 00 00
       -0.008368329 0.0

model_7/dense_161/MatMul f4 [2, 1]
000000 87 32 dc c0 1a 51 5e bf
       -6.881168 -0.868425

model_7/angbutter/MatMul f4 [1, 2]
000000 7c 7b c4 41 4c 24 80 bf
       24.560295 -1.0011077

model_7/dense_162/MatMul f4 [4, 1]
000000 c8 ab a3 be 45 b9 5c bf f2 8f 20 bf 3c 98 24 be
       -0.31966996 -0.862202 -0.62719643 -0.16073698

model_7/dense_163/MatMul f4 [6, 1]
000000 47 8c 9b c2 17 4e 01 c3 57 38 54 bf ae b2 c8 be
       -77.77398 -129.30504 -0.8289847 -0.39198822
000010 2f 8a bb c2 d1 47 3d c2
       -93.76989 -47.320133

model_7/dense_164/MatMul f4 [8, 1]
000000 20 55 75 ce 76 17 d6 be 7c 7e 35 be 2e 83 65 cd
       -1.0289992e+09 -0.41814774 -0.17724031 -2.4066122e+08
000010 77 40 12 bf 1b 4e f6 be eb 0e e5 c2 1f 67 d6 be
       -0.57129616 -0.48106465 -114.52914 -0.4187555

model_7/americano/MatMul f4 [1, 8]
000000 a5 02 9c 4e 5c e1 2a 3f 70 96 3b bf 08 fb 49 4e
       1.3087095e+09 0.6675012 -0.73276424 8.47168e+08
000010 4e 31 06 bf c0 cf 99 bd a6 bf d5 c2 98 a9 d7 3e
       -0.52418983 -0.07510328 -106.87431 0.42121577

model_7/dense_165/MatMul f4 [10, 1]
000000 40 d3 5d c2 7b a1 73 d0 ae b1 0e bf 45 b8 3f c1
       -55.4563 -1.6349785e+10 -0.5573987 -11.982488
000010 2c 52 45 c2 a4 23 44 be 6c 49 33 bf ae d4 74 c3
       -49.330246 -0.19154221 -0.7003391 -244.83078
000020 b8 2d 48 c3 f0 bc 3a be
       -200.17859 -0.18236136

model_7/croissant/MatMul f4 [1, 10]
000000 d4 cf 6a 42 84 9b 78 d0 63 46 05 bf cd bc 82 43
       58.702957 -1.6683766e+10 -0.52060527 261.475
000010 c6 8e 22 41 20 63 81 3c ae 59 96 3e d6 43 09 43
       10.159857 0.015794337 0.29365295 137.26498
000020 da 3b 81 43 b5 d4 e6 be
       258.4676 -0.45084158

model_7/dense_166/MatMul f4 [12, 1]
000000 54 1b 37 be cf 8d 54 ca 9b 24 b9 cc ab 7d a5 c1
       -0.17881519 -3.4824838e+06 -9.706825e+07 -20.686361
000010 46 73 00 c2 40 1a f5 bd e0 93 9d be 01 58 93 be
       -32.11257 -0.119678974 -0.30776882 -0.2877808
000020 29 03 15 c1 ab b6 26 c1 ac 61 e9 c1 50 9a 1c cc
       -9.3132715 -10.419597 -29.172691 -4.105248e+07

model_7/caffe_latte/MatMul f4 [1, 12]
000000 74 53 13 3f ce e9 2e 4c 18 2b 09 4c f6 e2 07 c1
       0.57549214 4.585247e+07 3.5957856e+07 -8.49291
000010 29 ee 32 c2 94 3e 2d bf 38 8b 7a be 38 aa 13 bf
       -44.73258 -0.6767361 -0.2446717 -0.5768161
000020 e9 7b 04 c1 f0 a7 5d c0 de e6 5e bf d0 24 4e 4c
       -8.2802515 -3.463375 -0.87071025 5.403936e+07

model_7/dense_167/MatMul f4 [14, 1]
000000 37 d9 0a bf 08 70 a1 bf f1 d2 d0 c7 dc 32 92 be
       -0.54237694 -1.2612314 -106917.88 -0.28554428
000010 4e 0f 1c bf 14 76 60 be f9 18 97 c7 10 f0 25 c7
       -0.60960853 -0.21920043 -77361.945 -42480.062
000020 18 56 cb bd 0e 7e 09 c7 f0 31 93 bd 3a 52 b2 be
       -0.099285305 -35198.055 -0.07187259 -0.3482836
000030 00 00 4f b9 34 85 3d c0
       -0.00019741058 -2.961255

model_7/dense_168/MatMul f4 [16, 1]
000000 20 a5 38 bd e0 95 d3 be ee d4 5b be b5 5d 3c ce
       -0.04507935 -0.41325283 -0.21467945 -7.9006445e+08
000010 54 aa 35 be f9 51 e4 c2 5c 55 d8 be 50 2a 6c bd
       -0.17740756 -114.1601 -0.42252624 -0.05765754
000020 ab 45 cd ce cf cc 0c bf a6 c4 37 be c8 70 4e cc
       -1.7219475e+09 -0.55000013 -0.17946109 -5.411715e+07
000030 55 51 35 c2 40 b8 b8 bd 62 9e 03 c3 ec 90 ed bd
       -45.329426 -0.09019518 -131.61868 -0.11599907

model_7/cacao_deep/MatMul f4 [1, 16]
000000 8c 23 eb 3e 1a 33 35 be 30 82 cc 3e 38 0b 5e ce
       0.45925558 -0.17695275 0.39943075 -9.313193e+08
000010 78 56 fa 3e 70 60 7c 42 e4 6f d8 3e 44 06 8c be
       0.48894095 63.094177 0.42272866 -0.2734853
000020 a7 9c 4e cd 70 f0 2e be 10 d1 e6 3e ca d3 86 ce
       -2.166483e+08 -0.17083907 0.45081377 -1.1310134e+09
000030 e3 b0 3d 41 6e a2 89 3e a3 9c fa 42 bc bc 17 3f
       11.855685 0.26881737 125.30593 0.5927236

model_7/dense_169/MatMul f4 [18, 1]
000000 43 b6 3e c8 80 20 18 be b1 28 b8 c9 bd 7c b4 c0
       -195289.05 -0.14856148 -1.5086301e+06 -5.640227
000010 2c d9 79 be ce 63 46 be d5 b3 33 c9 50 ec ab be
       -0.24399251 -0.1937401 -736061.3 -0.3357873
000020 57 a2 80 be d2 a7 c4 c9 fb a7 24 c1 a3 8f 96 be
       -0.25123855 -1.6110022e+06 -10.291011 -0.2940646
000030 63 d7 88 be a8 b6 19 c9 46 86 41 be 22 53 38 be
       -0.26726827 -629610.5 -0.18898878 -0.18000463
000040 00 ac a0 be 91 b7 5f c8
       -0.31381226 -229086.27

model_7/dense_170/MatMul f4 [20, 1]
000000 d6 b7 fe c8 04 84 21 be 42 e0 cf ca 00 0e 91 ba
       -521662.7 -0.15773016 -6.811681e+06 -0.0011066794
000010 18 b0 8a c1 b4 16 83 c1 71 7b 50 bf 2d 98 41 ca
       -17.335983 -16.386086 -0.81438357 -3.1718512e+06
000020 3a 60 f4 be 09 40 2d c1 e2 af dc be 94 4e 00 c0
       -0.47729665 -10.828134 -0.43102938 -2.004796
000030 52 83 ba be fd 01 38 ca 44 f9 ae be 87 8f 1b ca
       -0.36428314 -3.0147832e+06 -0.3417455 -2.5487058e+06
000040 a1 3b b2 ca f8 ea dd be 58 37 c3 be 00 7a 8b be
       -5.8403365e+06 -0.4334333 -0.3812816 -0.27241516

model_7/almond_croissant/MatMul f4 [1, 20]
000000 ff 7b 21 ca 18 65 19 be 17 ad 59 ca 74 04 e7 be
       -2.6457598e+06 -0.1497997 -3.5664058e+06 -0.45120585
000010 1b 29 82 40 28 42 ad 40 e6 fd 6e 41 ab bd 2d ca
       4.0675178 5.4143257 14.936987 -2.8465708e+06
000020 10 3e ba 3d 96 95 57 41 88 62 b3 be b0 14 2e 40
       0.09093869 13.47402 -0.3503611 2.7200127
000030 58 89 10 3e 79 d5 98 c9 78 ec 07 bf 9e 5e 7f ca
       0.14114892 -1.2520151e+06 -0.530952 -4.1839755e+06
000040 b9 8f 1f ca 2a 85 02 be 1c e1 ac 3e 70 49 00 bd
       -2.6142542e+06 -0.1274611 0.33765495 -0.031320035

model_7/dense_171/MatMul f4 [22, 1]
000000 d6 cf 8d c2 bc 47 cc cc 2c 45 86 bd 80 47 78 cd
       -70.90593 -1.0710166e+08 -0.06556162 -2.6033971e+08
000010 7d 72 08 c2 80 a4 fb be da 74 4c be 1a b6 23 be
       -34.111805 -0.4914894 -0.1996645 -0.15987435
000020 01 f7 83 cd a8 6d d2 c1 3c 54 59 be 7e 33 ae be
       -2.7675037e+08 -26.303543 -0.21223539 -0.3402366
000030 40 c5 67 cd dd 5c b5 c0 6d b6 d8 c0 1c 84 c8 bd
       -2.43029e+08 -5.667586 -6.772269 -0.09790823
000040 dc 4b 16 be 6f ad 3e c2 20 b6 c5 bd a5 9f d3 cd
       -0.14677376 -47.66937 -0.09653878 -4.4380688e+08
000050 b0 48 91 cd 6a a9 e2 be
       -3.046825e+08 -0.44269878

model_7/croque_monsieur/MatMul f4 [1, 22]
000000 71 9f 7f 42 a7 b1 ec cd 54 b1 e9 3e 7c 02 b7 cc
       63.905704 -4.963832e+08 0.45643103 -9.594979e+07
000010 da d4 c7 40 a8 3e 00 3e 00 90 4e 3c 18 ce b2 bd
       6.244733 0.12523901 0.012607574 -0.087307155
000020 b2 6c 84 cc 66 bc 56 42 88 e0 31 bd 99 5a 8c be
       -6.942862e+07 53.683983 -0.04342702 -0.2741287
000030 4f 76 69 cb 1b 3b a5 42 fa d9 7a 41 54 39 d6 3e
       -1.5300175e+07 82.61544 15.678217 0.41840613
000040 02 42 98 be c0 e7 81 42 12 84 1a be be ba 51 cd
       -0.2973786 64.95264 -0.15089443 -2.1991728e+08
000050 e4 7b 0e ce 88 83 f1 be
       -5.97621e+08 -0.47170663

model_7/dense_172/MatMul f4 [24, 1]
000000 af 10 83 c2 79 36 27 cf 4f c3 89 c1 e5 a4 60 c2
       -65.532585 -2.805365e+09 -17.220366 -56.16103
000010 5c 26 aa bd 76 5a 91 c2 bc d0 d3 be 6c 2e 8f cf
       -0.08308098 -72.67668 -0.4137019 -4.8043684e+09
000020 5f 0e 6f ce f2 8e 1c be 6b 21 8b cd 55 96 8a cf
       -1.0026741e+09 -0.15288904 -2.917779e+08 -4.650216e+09
000030 86 78 33 cf 02 cc 46 be 40 a7 90 c2 c2 34 b4 c1
       -3.0110203e+09 -0.1941376 -72.32666 -22.52576
000040 bc e5 bf c2 48 1d 8a be 21 91 e1 c2 6b 42 01 c2
       -95.9487 -0.26975465 -112.783455 -32.31486
000050 18 c1 63 bd 64 23 c5 c2 14 c9 96 be bc e2 3d be
       -0.05560407 -98.56912 -0.29450285 -0.18543524

model_7/dense_173/MatMul f4 [26, 1]
000000 6a e2 50 ce 00 2f 67 c2 fa 8b 4d c2 6e 6d af be
       -8.761248e+08 -57.7959 -51.386696 -0.34263176
000010 1a 0f 26 c2 ab b7 9f c1 12 c1 c4 be 43 71 e2 be
       -41.514748 -19.964682 -0.3842855 -0.44227037
000020 05 85 03 c2 44 b7 23 c2 d1 8b 5a c2 41 e0 13 cd
       -32.8799 -40.92897 -54.63654 -1.5505922e+08
000030 62 1e 63 ce 44 77 8b be 18 ef 93 ce ce 2a 6b be
       -9.526048e+08 -0.2723943 -1.24096e+09 -0.22965547
000040 ec cd 83 cd 52 74 c7 c0 b0 06 de bc a0 cd 6a bd
       -2.7641382e+08 -6.2329493 -0.027102798 -0.057325006
000050 1a 50 24 be 8e 54 5d be 0f 4f 06 c2 8e b8 44 be
       -0.16046181 -0.21614286 -33.577206 -0.19211027
000060 ac 1f b7 cc 8c be 81 be
       -9.600957e+07 -0.25340688

model_7/dense_174/MatMul f4 [28, 1]
000000 5d 11 d1 be b5 22 4d c1 38 00 4b be a6 85 95 be
       -0.4083356 -12.820973 -0.19824302 -0.29203528
000010 c8 5b 57 c2 52 c4 9a be c7 48 c0 cc e9 80 a2 c1
       -53.83963 -0.30227906 -1.00812344e+08 -20.312944
000020 c3 c2 04 c2 85 2b f1 c1 47 f0 aa be 50 31 c2 bc
       -33.190197 -30.14625 -0.33386442 -0.023705155
000030 44 b6 24 be 1b 84 8a cd 18 48 df be be 0e cd bf
       -0.16085154 -2.9048918e+08 -0.4360969 -1.6020124
000040 ad 34 19 c2 ed 38 66 cd 68 b1 9b be 4e 7e e0 be
       -38.30144 -2.4140565e+08 -0.30408788 -0.43846363
000050 41 d1 ba c1 de 4c 16 c2 5a 26 73 be 3c 4e 8f bd
       -23.352175 -37.575066 -0.23745099 -0.06997344
000060 27 b8 53 cc 3d 23 f5 cc 68 2d 10 bd 4a 34 cb c1
       -5.5500956e+07 -1.2852273e+08 -0.035199553 -25.400532

model_7/dense_175/MatMul f4 [30, 1]
000000 dd b8 6e c3 f4 2a 51 d0 80 a7 7e bd fe e7 96 be
       -238.72212 -1.4037012e+10 -0.06217146 -0.2947387
000010 46 73 b2 c2 9c c3 54 cf 66 af a7 be a2 5a 72 c3
       -89.22514 -3.5695892e+09 -0.32751006 -242.35403
000020 54 4e c5 bf 20 45 9d bd d0 88 3d bd 95 a9 de c2
       -1.5414529 -0.076792 -0.046273053 -111.331215
000030 98 e0 34 bd 14 9d bc cf 6a 74 1d c3 93 94 75 c3
       -0.0441595 -6.328822e+09 -157.45474 -245.58037
000040 6c 90 9f c2 3f cb 32 c3 96 7c d6 be f1 3d 28 cf
       -79.782074 -178.79393 -0.41891927 -2.8226317e+09
000050 74 03 35 c3 f7 bb 77 be 32 cc c6 be 57 5a fb cf
       -181.01349 -0.24192797 -0.38827664 -8.4340035e+09
000060 49 59 d4 be 6a ef d7 bf 49 da 89 cf a3 bf 33 c3
       -0.4147437 -1.6869938 -4.6255683e+09 -179.74858
000070 2e 94 c2 be f8 f4 ff bd
       -0.38003677 -0.12497896

model_7/dense_176/MatMul f4 [32, 1]
000000 e9 45 95 be db 89 a8 be 4e 6d 02 c0 4f 99 d7 c1
       -0.291549 -0.32917675 -2.0379214 -26.949858
000010 cc c9 af be 9c ba c7 be 94 51 ba bd e9 b3 88 cd
       -0.34333646 -0.3900956 -0.09097591 -2.866865e+08
000020 29 b9 71 be 7a 2b 41 c2 32 f8 7a be 77 5f 00 c1
       -0.23605789 -48.292458 -0.24508741 -8.023307
000030 66 1e fd c1 b7 dc 4a c1 cc 9f 94 bd 41 05 be cc
       -31.639843 -12.678885 -0.07257041 -9.962548e+07
000040 45 96 3f c2 62 98 99 be 38 ab 73 bd 32 ad e1 c1
       -47.896748 -0.2999907 -0.05948946 -28.209568
000050 a8 9a d7 cd 31 0f 81 c1 9c 7c b7 cc 7a 99 05 be
       -4.5215462e+08 -16.132418 -9.61999e+07 -0.13046828
000060 00 79 bc bc ac 67 80 cd 66 47 86 cc b6 00 67 be
       -0.023006916 -2.6928474e+08 -7.040082e+07 -0.22558865
000070 06 a8 1c cd 01 9c b0 cd 1a 53 79 cd 58 7b 59 bd
       -1.6426608e+08 -3.7037674e+08 -2.614358e+08 -0.053096145

model_7/cheese_cake/MatMul f4 [1, 32]
000000 f7 45 b9 be 1a ae ba be ce f7 58 c2 12 60 69 c2
       -0.3618619 -0.36460954 -54.241997 -58.34382
000010 10 53 a7 3e 68 69 ca 3e 40 09 a6 3d 49 b7 85 4a
       0.3268056 0.39533544 0.08107233 4.3816045e+06
000020 70 d4 7b 3e b8 fa fb c0 4c 76 a5 bd 9c a5 74 c2
       0.24592757 -7.8743553 -0.08079204 -61.161728
000030 d1 b5 0a c2 bc 47 85 c1 60 8b db 3d 64 cf a3 4d
       -34.677555 -16.660027 0.10719943 3.4353472e+08
000040 88 73 4d c2 9a 54 23 be 1c 54 75 be 92 be 64 c2
       -51.362823 -0.15950242 -0.23957866 -57.186104
000050 e0 bb 8a 4c 2b b3 24 c0 2e 78 9b 4c b0 44 b2 3c
       7.273651e+07 -2.5734355 8.151077e+07 0.021761268
000060 54 95 14 be cc dd 21 4c 1e 6f e0 4c 00 30 34 3b
       -0.14510089 4.2432304e+07 1.1766808e+08 0.002749443
000070 61 d2 4b 4b b1 e3 5a 4d 5c 01 d2 4d d3 a2 a6 be
       1.3357665e+07 2.2952219e+08 4.4041306e+08 -0.325461

model_7/dense_177/MatMul f4 [34, 1]
000000 52 3c 98 be da 4a 02 cc 36 86 c5 be eb 4a a4 be
       -0.2973352 -3.415537e+07 -0.38578957 -0.32088408
000010 77 cd 19 c0 89 67 2e cc 07 5f 01 c1 d4 79 0c be
       -2.4031656 -4.5719076e+07 -8.0857 -0.13718349
000020 8a 9d 26 cb 77 fb 9e cc 20 c6 36 bc 5c 15 af bd
       -1.0919306e+07 -8.3352504e+07 -0.011155635 -0.08548996
000030 e4 e0 0a c1 71 bb 01 cc 33 a0 88 cc 2a 2a 9b cc
       -8.679905 -3.4008516e+07 -7.1631256e+07 -8.135099e+07
000040 49 ad d3 c0 50 ef 9a bd f3 d3 d6 cb 0e 1c 9e c0
       -6.614903 -0.075651765 -2.8157926e+07 -4.9409246
000050 9f 9b 2b cb 4c 72 d1 cb d3 8e 25 c1 d4 00 4d c9
       -1.1246495e+07 -2.7452568e+07 -10.347369 -839693.25
000060 ed 19 53 c9 00 d1 c3 c1 b8 b4 6f be d9 af c6 c1
       -864670.8 -24.47705 -0.23408782 -24.835863
000070 3c 8d 8b bd 36 c9 a6 be 5a d7 a5 c1 c3 f5 8c cc
       -0.06814048 -0.32575387 -20.730152 -7.390364e+07
000080 c0 6c 30 bd 81 3c cb c1
       -0.043072462 -25.404543

model_7/dense_178/MatMul f4 [36, 1]
000000 59 d3 b7 cd 38 80 f3 bd aa 29 cf cd 4e ae 00 be
       -3.8551018e+08 -0.1188969 -4.3445178e+08 -0.12566492
000010 9c 02 ea bd 80 39 2e c2 d0 14 8a be 91 d0 91 be
       -0.11426279 -43.556152 -0.26969004 -0.28479436
000020 79 34 7e be 1e 7f f5 c1 bc c1 80 bd 84 a5 96 be
       -0.24824704 -30.687069 -0.06286952 -0.29423153
000030 cf 58 63 cd 00 54 b5 bb 05 9c 1d ca 15 90 a5 be
       -2.3839051e+08 -0.005533695 -2.5822732e+06 -0.32336488
000040 b9 04 c7 be 13 76 98 be d7 36 80 cd ce 35 2d be
       -0.3887079 -0.29777583 -2.688847e+08 -0.16915056
000050 8d ff 0c c1 14 91 00 be dd 61 38 c2 35 46 9f bf
       -8.81239 -0.12555343 -46.09557 -1.24433
000060 f3 9b 6c c1 a0 d9 e9 bc 21 f4 af cd 31 ff 99 be
       -14.788074 -0.028546154 -3.690015e+08 -0.30077508
000070 10 97 84 bc ff 2b cc be 63 0f 40 c2 8e 2e 3f be
       -0.016185313 -0.39877316 -48.015026 -0.18670103
000080 4a f2 bc be 2f 37 c5 be e6 d0 71 c2 ec 05 53 c2
       -0.36903602 -0.38518664 -60.454002 -52.755783

model_7/dense_179/MatMul f4 [38, 1]
000000 e4 a7 60 be f9 28 1d ce d2 b3 84 be 67 ef 4a cd
       -0.21939045 -6.59177e+08 -0.25918442 -2.1279294e+08
000010 b5 84 34 be 67 cb 4c c2 d8 94 30 be 10 d9 a1 bc
       -0.17628749 -51.198635 -0.1724428 -0.019756824
000020 79 01 85 bf 88 18 6f be a4 b3 b9 be 22 d7 0a be
       -1.0391074 -0.23349202 -0.36269867 -0.13558629
000030 40 c4 1b bc 3c e0 58 be dd d2 d8 cc 42 6a 3e be
       -0.009507239 -0.21179289 -1.13678056e+08 -0.18595222
000040 75 93 12 c2 30 13 e6 bc b8 74 a5 bd 33 09 9d bf
       -36.644 -0.028085321 -0.08078903 -1.2268432
000050 9f dc 54 c1 40 c3 1b ce c0 e5 a8 bc b2 ce d9 cd
       -13.303863 -6.533161e+08 -0.020617366 -4.5677523e+08
000060 18 bf ba be 99 b6 68 c2 34 e7 d0 bd 4e 24 9e be
       -0.36473918 -58.178318 -0.102003485 -0.30887073
000070 0f d3 84 c2 ee 36 48 c2 66 bf 73 be eb aa 19 c2
       -66.412224 -50.053642 -0.23803481 -38.416912
000080 62 fa 00 be 4d b8 1f be eb 3c 4f c1 dc 3f ba bd
       -0.12595513 -0.15597649 -12.952373 -0.090942115
000090 aa 6c 13 be b0 99 9c bc
       -0.14396921 -0.019116253

model_7/dense_180/MatMul f4 [40, 1]
000000 6f 6e 71 be 8d 3c 55 ca 4c 36 b7 be 26 71 29 c1
       -0.23577283 -3.4936672e+06 -0.35783613 -10.590124
000010 22 9d c1 ca 5b f3 2b ca 68 90 c5 bd 43 8d 8e c9
       -6.344337e+06 -2.8172388e+06 -0.09646684 -1.1677844e+06
000020 a3 2b 40 be 54 0a 8b bf 2a 0e bc ca 06 9a 97 be
       -0.18766646 -1.0862527 -6.162197e+06 -0.29609698
000030 d0 76 a9 be 22 20 55 c9 22 7e ad ca 71 a2 86 be
       -0.3309846 -872962.1 -5.685009e+06 -0.26295808
000040 5a 8f 23 c1 24 89 e8 bd ef 5f 09 be d0 df c6 bd
       -10.222498 -0.113542825 -0.13415502 -0.097106576
000050 35 47 a0 be ae 91 ad be 19 2f 98 be ca a2 00 ca
       -0.31304327 -0.33900207 -0.29723433 -2.1075705e+06
000060 28 ae 1b c1 7c e6 4a be 97 1b a7 ca ec be 1b c1
       -9.730019 -0.19814485 -5.4757875e+06 -9.734112
000070 f1 a7 04 ca 8f 87 50 be 91 ba 1e c0 9e 01 9f c0
       -2.1734362e+06 -0.20364211 -2.480137 -4.9689474
000080 33 ba 14 ca fc e0 8c be 72 23 ba ca d6 7f 85 be
       -2.4367488e+06 -0.275154 -6.099385e+06 -0.26074094
000090 44 0e 77 be 9c 34 ab c0 7b 13 bb ca 6d e4 a4 be
       -0.24126536 -5.350172 -6.1301095e+06 -0.32205525

model_7/dense_181/MatMul f4 [42, 1]
000000 28 bb 3c bd 00 b9 3d ce 2f 80 a8 be d4 8d 60 be
       -0.046076924 -7.957545e+08 -0.32910296 -0.21929103
000010 6d 8c 77 c0 a0 0c 99 bd e3 45 22 be 36 b3 67 be
       -3.867946 -0.07473111 -0.15846972 -0.22626957
000020 6c 41 3f ce f4 c2 48 c2 69 4a 45 c2 bc f3 90 be
       -8.0218394e+08 -50.190384 -49.322666 -0.28310955
000030 d2 c2 41 be ac 6f 9d be 44 5d b6 be 60 57 34 bd
       -0.18921974 -0.3074926 -0.3561803 -0.04402864
000040 cd 59 76 be d4 ba 4e be e1 7a 0c c2 16 57 bb c1
       -0.24057694 -0.20188457 -35.12 -23.417522
000050 60 69 7f bd df 4c 71 be 50 81 f8 bc 8e cb 74 be
       -0.062356353 -0.2356448 -0.030335099 -0.23905775
000060 ac d4 19 c2 a2 fe 6c cd d0 c8 e1 bc 34 4e 09 be
       -38.457687 -2.4850691e+08 -0.027561575 -0.13408738
000070 b9 fd 84 c2 8d fc 12 cd af c8 a8 be 2f 9e 46 ce
       -66.49555 -1.5412654e+08 -0.3296561 -8.330639e+08
000080 d8 88 1d c2 c3 55 0a be 14 1d b2 bd 1b a1 05 ce
       -39.383636 -0.13509278 -0.086969525 -5.60482e+08
000090 fb f9 36 be 3e 26 52 ce 84 e5 38 be 7c dd 11 ce
       -0.17868797 -8.814304e+08 -0.18056303 -6.118029e+08
0000a0 78 28 2c bd 60 e7 48 bd
       -0.04203078 -0.04904878

model_7/berry_ade/MatMul f4 [1, 42]
000000 f0 eb 69 3e d0 0d 1f 4d 88 e5 90 3e 7c 72 a3 be
       0.2284391 1.6678016e+08 0.28300118 -0.31923282
000010 e4 82 d1 c1 0c bc b3 be 89 30 2c be 88 29 c7 bd
       -26.188911 -0.35104406 -0.1681539 -0.09724718
000020 8e 3e d1 4d c5 75 2f c2 9e f0 86 c2 e4 44 b7 3e
       4.388172e+08 -43.86501 -67.469955 0.35794747
000030 cc 12 08 3e a0 9f 0e 3c 74 08 db 3d 18 4a 55 3d
       0.1328842 0.00870505 0.10694972 0.052072614
000040 04 c1 2d 3e 28 cc ae bd b4 15 8c c2 b8 9b 08 c2
       0.16968161 -0.085350335 -70.04239 -34.15207
000050 e8 35 09 3d a8 85 40 be 34 ea a3 be 24 4c 6a be
       0.033498675 -0.18800986 -0.3201462 -0.22880608
000060 4b bd 0b c1 d6 3e a8 4c 9c 22 b8 be fc 49 9a be
       -8.733714 8.820907e+07 -0.35963905 -0.3013457
000070 66 07 8b c2 b1 0d 96 4c 91 e4 87 be 02 7b 1a 4e
       -69.51445 7.867124e+07 -0.2654157 6.479382e+08
000080 8e 3d 76 c2 81 b8 30 be 00 fb 0a bd 86 e0 24 4e
       -61.560112 -0.17257883 -0.03393078 6.9154445e+08
000090 5c e5 83 3e db cb 01 4e ab fa 10 be af c9 b5 4d
       0.25760925 5.444052e+08 -0.14158122 3.812367e+08
0000a0 e0 0a 0c 3c b9 ba be be
       0.008547515 -0.37251833

model_7/dense_182/MatMul f4 [44, 1]
000000 2c 00 f7 cd d3 09 90 be 50 84 0f bd 2f 07 13 c3
       -5.1799795e+08 -0.28132495 -0.035038292 -147.02806
000010 3c e5 8e be aa 1a f6 c2 b3 62 80 ce 7a 03 2a c2
       -0.27909267 -123.05208 -1.076976e+09 -42.503395
000020 e0 45 e1 bc 3f 7b 04 c3 84 57 bf c1 0f c1 2f be
       -0.02749914 -132.48143 -23.917732 -0.1716349
000030 00 26 97 ba 08 e1 e7 c2 65 58 9d be 07 bf 29 be
       -0.0011531711 -115.939514 -0.30731502 -0.16576777
000040 56 88 68 be a4 95 9b be ae be 95 be db ae c6 ce
       -0.22708258 -0.30387604 -0.2924704 -1.666674e+09
000050 10 95 c1 bd 27 04 65 be 4d 56 45 be e4 db 81 c2
       -0.094522595 -0.22364865 -0.19271202 -64.929474
000060 81 58 5f be db 3d 63 cf 7c bf c2 bd 10 ef b2 ce
       -0.21811105 -3.8124818e+09 -0.09509179 -1.5010058e+09
000070 4e 15 03 c3 91 eb 98 be a5 7e a8 be d8 41 36 c2
       -131.08322 -0.29867223 -0.32909122 -45.5643
000080 99 08 2b cf d8 c5 7c c2 76 bc 11 c3 50 34 f5 bc
       -2.8694674e+09 -63.193207 -145.73618 -0.029932171
000090 5f c3 04 be 8b 12 90 cf b5 75 b1 be 08 74 ab be
       -0.12965153 -4.8342687e+09 -0.34660116 -0.33486962
0000a0 58 91 8a bd 2b 87 6e be b4 02 a5 be 92 a2 11 c3
       -0.06766003 -0.2329375 -0.32228625 -145.63504

model_7/dense_183/MatMul f4 [46, 1]
000000 df 8b a2 bf e6 81 f4 bd 1c 7c 9e be 70 ed 66 be
       -1.2698935 -0.11938839 -0.30954063 -0.22551513
000010 eb 10 d9 c0 f3 4a b3 c0 80 1b 45 bd 50 f7 60 c8
       -6.783315 -5.602899 -0.04812193 -230365.25
000020 2e 30 66 c8 2f af f2 bf d8 eb 60 be 8a 29 44 be
       -235712.72 -1.8959712 -0.21964967 -0.19156471
000030 b8 cd 53 be 2c 11 c3 bd 39 c7 a6 be b5 bc 22 be
       -0.20683944 -0.0952476 -0.3257387 -0.15892299
000040 4c 22 d1 bd 1b 05 40 c9 dd 3f 5b be 4c 6e c6 c8
       -0.1021162 -786513.7 -0.2141108 -406386.38
000050 40 6a b3 bc 08 5d b2 bd 0e 16 94 c9 c4 72 a8 bf
       -0.02190125 -0.087091506 -1.2131218e+06 -1.3160024
000060 4e 76 21 c9 72 eb a6 c0 22 5d a1 c9 43 88 7a c0
       -661348.9 -5.216241 -1.3218922e+06 -3.9145668
000070 74 91 ad bd ee 87 f4 c7 ca 02 96 c9 4a 1c f7 bf
       -0.084750086 -125199.86 -1.2288892e+06 -1.9305508
000080 af 35 5f c9 70 0f 85 be 50 44 76 be 42 0f a2 c9
       -914266.94 -0.2598834 -0.24049497 -1.3275922e+06
000090 ec 79 84 be ab b1 b0 be cb 08 cd c8 47 56 b0 be
       -0.2587427 -0.3451055 -419910.34 -0.34440824
0000a0 68 2c 7c c0 43 d0 83 c9 fe fe d1 be ca 61 90 be
       -3.9402103 -1.0798164e+06 -0.41014856 -0.28199607
0000b0 b0 eb 2f c0 64 5f 7d c8
       -2.7487602 -259453.56

model_7/gateau_chocolat/MatMul f4 [1, 28]
000000 fc 15 73 3e 3e 57 4d 42 10 3a 32 be 64 b5 3b 3e
       0.23738855 51.335197 -0.17404962 0.18330914
000010 c4 19 22 41 cc 56 87 3e 80 49 aa cd fe 26 ce 41
       10.13129 0.26433408 -3.5711795e+08 25.76904
000020 09 60 93 41 76 ae 25 40 c8 7d 16 3e 7f 23 bb be
       18.421892 2.5887733 0.14696419 -0.3655052
000030 d0 c9 a8 be 03 c1 b8 cd 48 82 bf 3d 5c 76 fb 41
       -0.3296647 -3.8745712e+08 0.09351021 31.432793
000040 c6 6b 63 42 c5 52 75 cd 48 44 92 3e 5c 00 cb bd
       56.855247 -2.5724014e+08 0.2856772 -0.09912178
000050 ba 94 23 42 45 52 88 41 b8 a4 74 3e b8 69 94 3e
       40.89524 17.04017 0.2389096 0.28986907
000060 57 0d 03 cd 1b d2 1b cd 5f 20 c1 be ec 09 b4 41
       -1.374181e+08 -1.6338987e+08 -0.3772001 22.504845

model_7/jam/MatMul f4 [1, 6]
000000 cf 69 72 c3 0f 4a 03 c3 ca 4f 58 3f 84 bd d6 3e
       -242.41331 -131.28929 0.8449675 0.41941464
000010 55 80 a3 c2 96 98 d1 c2
       -81.75065 -104.79802

model_7/lemon_ade/MatMul f4 [1, 34]
000000 9e e3 31 3e b7 ba 9c 4c 0e ee 5f 3e 30 b7 8b bc
       0.17371985 8.217132e+07 0.21868154 -0.017055124
000010 64 1f 0a c0 3b f2 8c 4c c3 2c 80 c0 44 2b b1 3d
       -2.158166 7.389641e+07 -4.005464 0.086508304
000020 9f 62 9b 4c 45 f0 af 4b c8 cc 2f be a6 23 5d 3e
       8.1466616e+07 2.3060618e+07 -0.17167962 0.2159563
000030 29 12 8c c0 81 65 65 4c 5e 27 88 4c 28 87 b4 4b
       -4.377217 6.0134916e+07 7.138379e+07 2.366216e+07
000040 72 b8 89 c1 38 7a a8 3d af 91 8d 4c 8b 26 c1 c1
       -17.215061 0.082264364 7.422297e+07 -24.14382
000050 9a 3f da 4b 7d 57 8a 4c 9a fb c2 c1 94 a7 08 4c
       2.860626e+07 7.253092e+07 -24.372852 3.5823184e+07
000060 b1 ba bb 4b 97 18 b8 c1 b4 2c 3c be 57 7b 9f c1
       2.460605e+07 -23.012007 -0.18376428 -19.935225
000070 00 a3 25 bc e6 54 2c 3e cf 9a 72 c1 32 ef 85 4b
       -0.010109663 0.16829261 -15.162795 1.7555044e+07
000080 32 42 7a be f7 ba 94 c1
       -0.24439314 -18.591291

model_7/mad_garlic/MatMul f4 [1, 24]
000000 ea 98 70 3f 3e 1c 1e cf ed 37 32 41 3b f5 f9 42
       0.9398333 -2.652651e+09 11.138654 124.978966
000010 03 be a5 3e ed 9d 8a 42 6f 95 e9 be d8 15 33 ce
       0.3237153 69.30845 -0.4562182 -7.511383e+08
000020 40 46 9f ce 7c 0f 46 be 10 54 28 cf cf 04 3c cf
       -1.3360906e+09 -0.19341844 -2.8240814e+09 -3.1544317e+09
000030 a6 93 bb ce 15 54 8e be e8 66 fd 41 f9 a5 0a 43
       -1.5735078e+09 -0.27798524 31.675247 138.64833
000040 22 d3 00 43 5b 57 ea be 44 bc 1b 42 f4 3e db 41
       128.82474 -0.45769772 38.933853 27.405739
000050 64 d8 cc 3d be ea f0 42 0c 61 c3 be d9 c4 dd 3e
       0.10002211 120.45848 -0.38159978 0.43314245

model_7/merinque_cookies/MatMul f4 [1, 46]
000000 55 3c 94 c0 10 f8 d7 3d 4c e6 43 3e c6 ad 98 be
       -4.6323647 0.10545361 0.1913082 -0.2982008
000010 fe 34 39 3e 68 d4 bb be 30 3d fc bc 6b 91 a7 49
       0.18086621 -0.3668549 -0.030790895 1.3727174e+06
000020 db 41 9e 49 6c 63 ce c0 ac 49 29 be c2 4c fc bd
       1.2964434e+06 -6.4496365 -0.1653201 -0.12319328
000030 f0 82 e6 3d 70 ac 88 3c 70 48 40 3e 50 82 95 be
       0.11255443 0.016683787 0.18777633 -0.29200983
000040 cc d1 24 3e 96 18 19 49 f8 8d 08 3e dc a1 35 48
       0.16095656 627081.4 0.13335407 185991.44
000050 64 ed 58 3e 45 10 57 be 3a 23 c1 48 cd a7 57 c0
       0.21184307 -0.210023 395545.8 -3.3696167
000060 fd 00 a5 49 e7 e1 6f c0 db 37 c2 48 25 25 be c0
       1.3517116e+06 -3.748163 397758.84 -5.9420342
000070 37 a7 77 be 73 e5 a0 49 2f 38 33 48 a9 95 9e c0
       -0.24184881 1.3180624e+06 183520.73 -4.955769
000080 0b 85 f3 48 32 dd b4 3e 8c 7e f4 3d ab bf 8f 49
       498728.34 0.3532501 0.119381994 1.1775894e+06
000090 5e 3d 51 be 51 8d 85 be 93 ca 52 49 2e 96 84 3e
       -0.20433566 -0.26084378 863401.2 0.25895828
0000a0 ea 09 d2 c0 6b 61 38 48 f7 cd bb c0 1c f0 16 3e
       -6.56371 188805.67 -5.868892 0.14740032
0000b0 28 92 90 c0 bd 5f 71 49
       -4.5178413 988667.8

model_7/milk_tea/MatMul f4 [1, 26]
000000 98 05 13 4e 86 fd fa c1 86 fb 9f c2 18 8b 1e bd
       6.1665434e+08 -31.37379 -79.99126 -0.03870687
000010 b9 8e 51 c2 03 33 9d c1 1b 4a d4 be 92 07 9e be
       -52.389378 -19.649908 -0.41462788 -0.3086515
000020 38 fd ac c1 f5 1e f8 c1 9d c9 8a c2 19 aa ea 4d
       -21.623642 -31.015116 -69.393776 4.92127e+08
000030 0c d5 95 4e bb c9 ac 3e 1a 19 cd 4d d6 d3 0c be
       1.2568837e+09 0.33747658 4.301218e+08 -0.13752684
000040 51 bb a6 4c e8 3c c4 c1 21 59 df 3e 2c 73 50 be
       8.741543e+07 -24.52974 0.43622687 -0.20356435
000050 00 e6 bb 3a 16 6e 1d 3e 3f 48 5e c2 83 b1 a0 3e
       0.0014335513 0.15374026 -55.570553 0.3138543
000060 ad 1c 6d 4e 3e 60 3d be
       9.945199e+08 -0.18493745

model_7/orange_pound/MatMul f4 [1, 36]
000000 51 19 e8 cd 70 06 74 3e 7e e1 8a cd a8 b3 48 3e
       -4.8674666e+08 0.2383058 -2.912542e+08 0.19599783
000010 68 32 a2 3e 84 a0 34 42 e6 8a af 3e e2 c8 55 be
       0.31679082 45.156754 0.3428566 -0.20877412
000020 28 bf 7a 3e 26 82 55 42 c3 f7 cb be ec dd 53 3e
       0.24486983 53.377098 -0.39837465 0.20690125
000030 5a 03 ef cc 0c e1 0d 3e 94 ea 09 cd a4 4a 31 3e
       -1.253117e+08 0.1385538 -1.4461574e+08 0.1731363
000040 5c df bd 3e 1f be 78 be f3 54 00 ce 20 c6 de bd
       0.37084472 -0.24291275 -5.382627e+08 -0.10877633
000050 c5 34 a6 3e 1e 34 ac be 00 d3 3a 42 17 5e 2b 42
       0.32462135 -0.33633512 46.706055 42.841885
000060 34 b2 64 42 e0 34 8e be 01 4b 2f cd b5 99 b4 be
       57.174026 -0.27774715 -1.8380802e+08 -0.3527352
000070 15 d7 a4 be 60 9e 83 3c e4 65 49 41 9e 8e 80 3e
       -0.32195345 0.01606673 12.587376 0.25108808
000080 70 e3 03 3e 20 e3 9e 3e d9 48 1a 42 f4 24 bd 40
       0.1287973 0.31032658 38.57114 5.910761

model_7/pain_au_chocolat/MatMul f4 [1, 18]
000000 76 10 ca c9 34 21 78 be 29 49 ce c8 fd a5 bd 41
       -1.6553108e+06 -0.24231416 -422473.28 23.706049
000010 a0 43 09 bf ec ad fd bd 1d c2 11 c8 2f b1 87 41
       -0.5361881 -0.123866886 -149256.45 16.961515
000020 9c d0 58 3e b6 a7 c1 c8 f8 ed 28 40 af b8 0a 3f
       0.21173328 -396605.7 2.6395245 0.54188055
000030 81 98 f6 be 49 ae ad c8 5a 4e 1c be a6 90 d2 be
       -0.48163226 -355698.28 -0.15264264 -0.41125983
000040 48 59 b5 3d e1 f2 6f c9
       0.0885492 -982830.06

model_7/pandoro/MatMul f4 [1, 30]
000000 e7 75 5c 43 74 ab 87 cc 72 c5 88 be 42 68 93 be
       220.46056 -7.113002e+07 -0.2671314 -0.2879048
000010 c4 9b 51 43 0c 42 48 cc 68 82 21 be 71 cf 04 43
       209.60846 -5.249643e+07 -0.15772402 132.81032
000020 ab 9e 33 43 c0 59 1c be 0c e4 05 3e 9d 03 6a 43
       179.6198 -0.15268612 0.13075274 234.01411
000030 60 c5 ea bd fa cf 3c d0 31 59 f1 42 f6 41 3a 42
       -0.114634275 -1.2670986e+10 120.6742 46.564415
000040 68 b5 62 43 73 9f 09 43 c0 6a 96 3d 76 2e ad ce
       226.70862 137.62285 0.0734458 -1.4527516e+09
000050 a3 e9 43 43 84 8d 66 be c3 0f cc be 89 25 ca ce
       195.91264 -0.22514921 -0.39855775 -1.6957288e+09
000060 dc 97 82 bd 52 26 ba 42 01 be db cf d6 8b 12 41
       -0.06376621 93.074844 -7.373325e+09 9.15914
000070 00 c9 da bb e9 28 d8 be
       -0.006676793 -0.42218712

model_7/plain_bread/MatMul f4 [1, 4]
000000 6e 33 1e 3f 8f f1 4e bf 5a 20 89 3f 04 2b 8c be
       0.61797225 -0.8083734 1.0712998 -0.27376568

model_7/tiramisu_croissant/MatMul f4 [1, 14]
000000 5c 50 02 bf 9e 37 81 40 11 34 01 c8 e9 21 9d be
       -0.5090387 4.038039 -132304.27 -0.30689934
000010 b6 ec 47 be 52 6b 7c 40 c6 3f 9d c7 0e c8 b5 c6
       -0.19523892 3.9440503 -80511.55 -23268.027
000020 c8 40 49 3e a4 a8 80 c7 82 20 0b bf 30 23 56 bd
       0.19653618 -65873.28 -0.5434648 -0.05227965
000030 08 b0 ab bd c1 31 d3 3f
       -0.08383185 1.6499559

model_7/tiramisu/MatMul f4 [1, 44]
000000 72 b4 91 4e 98 c4 a3 bd 4a 33 82 be 81 30 05 c2
       1.222261e+09 -0.07996482 -0.25429755 -33.297367
000010 10 1f 07 3d 58 2c cb c2 78 b9 42 4f 2a a2 a1 c2
       0.032988608 -101.58661 3.2669348e+09 -80.81673
000020 dc 2a 89 3d 00 41 fb c2 7d d3 cb c2 40 03 98 3e
       0.06697628 -125.62695 -101.91306 0.2968998
000030 24 95 95 3e 87 08 7f c0 7c cc 6d be f8 9f ba 3e
       0.29215348 -3.9848955 -0.23222536 0.3645017
000040 90 c0 35 3d 90 f1 36 bd c0 0b 18 bc 91 f4 88 4f
       0.044373095 -0.044663966 -0.009280145 4.5954586e+09
000050 00 88 e6 3b ac a7 ba 3e cd 91 b2 be a9 82 b5 c2
       0.0070352554 0.36456048 -0.34876862 -90.755196
000060 00 f4 31 3e 32 86 f8 4e 20 3f 6a 3d 7b 59 04 49
       0.17378235 2.0847721e+09 0.057189107 542103.7
000070 c4 03 9a c2 e8 58 96 be dc 8d 97 3e 15 87 e6 c0
       -77.007355 -0.29364705 0.29600418 -7.2039895
000080 7e f7 85 4f b2 11 9b c2 ca d5 01 c3 58 c7 97 3e
       4.495179e+09 -77.53456 -129.83511 0.29644275
000090 20 ae f4 bc e0 b7 04 4e d4 13 bf 3d b8 7f 16 3e
       -0.029868186 5.5666074e+08 0.09329954 0.14697158
0000a0 48 ba 2e 3e 0e d5 9f be e8 78 79 3e 2d 08 1f c2
       0.17063248 -0.31217235 0.24362528 -39.757984

model_7/vanila_latte/MatMul f4 [1, 40]
000000 40 35 f2 3b 83 52 b3 49 b4 89 83 bd 73 03 0e c1
       0.007391602 1.4690084e+06 -0.06422749 -8.875842
000010 31 1e 96 48 37 9f bd 4a c0 56 ae be 8c 42 f2 49
       307441.53 6.2135315e+06 -0.3405056 1.9845935e+06
000020 94 2e f7 3d 94 70 f9 be d7 0b db 49 00 86 84 3d
       0.12069431 -0.48718703 1.7944269e+06 0.06470871
000030 9a 1a 12 be 4b 57 53 4a 48 77 b4 4a 47 0d a9 be
       -0.1426796 3.4626108e+06 5.913508e+06 -0.33017942
000040 3b d3 2c c1 fe 16 6a 3e d0 5f 4f bd 78 3b 7c bd
       -10.80157 0.22860333 -0.050628483 -0.06158015
000050 5a f7 21 be 49 a1 bf be 18 41 52 bd a2 65 28 4a
       -0.15817013 -0.37427738 -0.05133161 2.7590165e+06
000060 4a 20 12 c0 4a 6d 15 3e 20 ee 3a 49 51 e0 05 c1
       -2.2832208 0.14592472 765666.0 -8.367265
000070 5f 2d 64 49 00 9c 22 ba 25 30 46 c0 43 c3 03 c1
       934613.94 -0.00062030554 -3.0966885 -8.235171
000080 bc 83 d5 49 e6 e3 1b 3e 1b cc 89 4a 74 d1 35 be
       1.7491115e+06 0.15223655 4.5153415e+06 -0.17755681
000090 88 33 67 3d e6 c3 92 c0 ad d6 31 4a c0 91 04 bd
       0.05644563 -4.5864134 2.9137072e+06 -0.03236556

model_7/wiener/MatMul f4 [1, 38]
000000 91 35 87 3e 0f 1b 31 cc a5 08 29 42 b4 12 43 cd
       0.26408055 -4.6427196e+07 42.258442 -2.0454893e+08
000010 83 aa 8b 3e cd a8 90 42 a0 ac 05 be bd 0a be be
       0.27278528 72.32969 -0.13054132 -0.37117568
000020 9e 47 17 3f 1e 0c 83 be d7 37 a5 3e 05 ce b2 be
       0.59093654 -0.25595182 0.32269165 -0.34922805
000030 46 db 34 3e 5e 21 72 3e c6 02 8e cd 86 11 07 3e
       0.17661771 0.23645541 -2.978183e+08 0.13190278
000040 4d f8 91 42 85 92 a2 3e 93 f5 3e be 26 e6 08 42
       72.98496 0.3175241 -0.18648367 34.224754
000050 a5 df 63 42 08 67 07 ce dc 11 09 be 48 78 26 cd
       56.968403 -5.679191e+08 -0.13385719 -1.7455629e+08
000060 f6 c9 08 be 8d 9c 00 42 42 ca 30 3e 8c aa f3 3d
       -0.13358292 32.15288 0.17264655 0.118977636
000070 60 a1 fa 41 e3 a0 34 41 71 09 a6 3e 77 dc 90 41
       31.328796 11.289279 0.32429078 18.107649
000080 80 e9 0f bd 80 cf ef bb d1 dd 86 41 95 28 2a be
       -0.035134792 -0.007318437 16.858309 -0.16617043
000090 88 17 08 3d bc e4 c2 bd
       0.033225566 -0.09516284
